data.pth (torch, 703018 bytes, 6 tensors)

l1.weight f4 [8, 4079]
0	0xbe203c28	-0.15647948
1	0xbd0aff39	-0.033934806
2	0xb9f95720	-0.00047557894
3	0x3bff7edc	0.0077971052
4	0x3c1d634a	0.009606192
5	0xbc37a19c	-0.011207964
6	0xbc3edc7a	-0.011649245
7	0x3c30752e	0.010770125
8	0x3c054c9c	0.008135941
9	0xbc289492	-0.010289328
10	0x3bc9624c	0.006145751
11	0xbb5a9670	-0.0033353828
12	0x3c7058e8	0.014669634
13	0x3b2764e8	0.0025542323
14	0xbc6a9f85	-0.014320259
15	0xbc0f81d5	-0.008758982
16	0x3d8767c7	0.06611591
17	0x3f06f9ea	0.5272509
18	0x3e1ab8d8	0.15109575
19	0x3fe1c054	1.7636819
20	0xbba139c2	-0.0049202153
21	0xbd859605	-0.065227546
22	0xbd81a103	-0.06329539
23	0x3f445496	0.7669157
24	0x3edf609f	0.43628404
25	0x3e6df5bf	0.23238276
26	0x4011cb1f	2.2780225
27	0x40118f3f	2.274368
28	0x3e7d72e1	0.24750854
29	0x3e98b769	0.2982743
30	0x4012c5fc	2.293334
31	0x3eda7d00	0.42673492
32	0x401074f6	2.2571387
33	0x3e6dbdd3	0.23216943
34	0x401266c4	2.2875223
35	0x3e174c05	0.14775093
36	0x4011e87e	2.2798152
37	0x401475c7	2.3196886
38	0x3e986347	0.29763243
39	0x40125222	2.286263
40	0x40128e9a	2.2899537
41	0x40146518	2.3186703
42	0x4010fe47	2.2655199
43	0x400f0196	2.2344718
44	0x4010a25f	2.2599103
45	0x3e9aa322	0.30202585
46	0x3e50ff5b	0.2040991
47	0x40113764	2.2690058
48	0x4012a72a	2.291453
49	0x40113c0e	2.2692904
50	0x4010d509	2.2630026
51	0x4012acef	2.291805
52	0x400fc730	2.2465324
53	0x4010119d	2.251075
54	0x3e8e2a9c	0.27766883
55	0x40126485	2.2873852
56	0x40136c5f	2.3034894
57	0x40128b5e	2.2897563
58	0x4010a75a	2.2602143
59	0x401379ee	2.304317
60	0x4012f00b	2.295901
61	0x3f87ac4f	1.059946
62	0xbc783530	-0.0151494
63	0xbdba00f9	-0.09082217
64	0xbc1164de	-0.008874146
65	0x3d3bc398	0.04584083
66	0x3e75c1ec	0.23999757
67	0x40122654	2.2835894
68	0x40128cae	2.2898364
69	0x3cf0ee0c	0.029410385
70	0x3fe25f83	1.7685398
71	0x3c1a4f19	0.009418272
72	0x3c556a0a	0.01302577
73	0x40113c67	2.2693117
74	0x3e9a2607	0.30107138
75	0x3d0aad70	0.03385681
76	0x3d06e962	0.032937415
77	0x3d934b01	0.0719204
78	0x3d8f95ae	0.07010971
79	0x3cccbae8	0.024991468
80	0xbb4c6574	-0.00311884
81	0xbc7b8584	-0.015351657
82	0x3be071cc	0.006849503
83	0xbc55b8d0	-0.013044551
84	0x3b880eb0	0.0041521415
85	0x3c79032c	0.01519851
86	0x3dd0f609	0.102031775
87	0xbe82e48e	-0.25564998
88	0x3d460393	0.048343252
89	0x3ddcb8bf	0.10777425
90	0x3da08f76	0.07839863
91	0x3e0c0423	0.13673453
92	0xbe059767	-0.13046037
93	0xbb603474	-0.0034210952
94	0x3b270cf0	0.002548989
95	0x3e5e88d5	0.21731885
96	0xbbd71194	-0.006563375
97	0x3e726957	0.23672996
98	0x3e9c0079	0.3046911
99	0x3e7222fc	0.23646158
100	0x3e1a4a03	0.15067296
101	0x3e88b2bf	0.26698872
102	0x3e9502c3	0.2910367
103	0x3edb83ba	0.42873937
104	0x3ef3f370	0.47646666
105	0x3e91619b	0.2839478
106	0x3e730b63	0.23734812
107	0x3e152d41	0.14568044
108	0x3e88584e	0.2662987
109	0x3e96f577	0.2948415
110	0x3ed5e116	0.4177329
111	0x3ee9bd12	0.45652062
112	0x3e973432	0.2953201
113	0xbb862d4c	-0.0040947553
114	0xbf09b97f	-0.5379867
115	0x3d1f34e8	0.038868815
116	0x3e9e51f7	0.3092191
117	0x4011da20	2.2789383
118	0x3e929cc3	0.28635225
119	0x3d32bd60	0.043637633
120	0xbe83e949	-0.2576392
121	0x3da2cbe2	0.07949044
122	0x3e004e93	0.12529974
123	0x3d77f12f	0.060532745
124	0xbe8e51f6	-0.27796906
125	0xbe26a72b	-0.16274707
126	0xbc19f00d	-0.0093956115
127	0xbc25807d	-0.010101435
128	0x3eda8bea	0.4268487
129	0x4013f601	2.31189
130	0x3db03159	0.08603162
131	0x3e0f7ffb	0.14013664
132	0xbe4434ce	-0.19160768
133	0x3e5e27d8	0.21694887
134	0x3b1b2068	0.0023670439
135	0x3dbbb41f	0.09165215
136	0xbe05370b	-0.13009278
137	0x3db2cf2c	0.08730921
138	0x401885c5	2.3831646
139	0x3e638565	0.22218855
140	0x3e7f7cf8	0.24950016
141	0x3e6e8cb4	0.23295861
142	0x40138ad4	2.3053484
143	0x4014ceeb	2.3251293
144	0x4010056d	2.2503312
145	0x402c66a1	2.693764
146	0x401bdc60	2.4353256
147	0x3e899c8e	0.26877254
148	0xbf757cd0	-0.95893574
149	0xbc39d3e6	-0.011342024
150	0x3c3f44c7	0.011674113
151	0x3d1bdef4	0.03805442
152	0x3d68a3c9	0.056796823
153	0xb8b22f00	-8.496456e-05
154	0x3e8e7083	0.27820215
155	0x401270f8	2.288145
156	0x401565f9	2.334349
157	0x401dd9ea	2.4664254
158	0x3e982ccd	0.2972168
159	0x3ea399ed	0.31953374
160	0x4010a14c	2.2598448
161	0x4013334e	2.3000064
162	0x3ed38d20	0.41318607
163	0x401204f8	2.2815533
164	0x3ed999d4	0.42500174
165	0xbc23b3d6	-0.009991607
166	0x3d81d6aa	0.06339772
167	0xbc5d23ba	-0.013497287
168	0x3e98d775	0.2985188
169	0x3e5c7f65	0.21532972
170	0x3e91e32e	0.28493637
171	0x3e7f8223	0.24951987
172	0xbae2a92d	-0.001729285
173	0xbe052c63	-0.13005213
174	0xbda84f69	-0.08218271
175	0x3e9b3626	0.3031475
176	0x3ea0ff78	0.31444907
177	0x3c520be6	0.01282022
178	0x40129936	2.2906013
179	0x3e10f6d5	0.14156659
180	0xbc53ac99	-0.012919568
181	0xbcdfb5f4	-0.027308442
182	0xbe0e4ed1	-0.13897254
183	0xbdc2c8d0	-0.09510958
184	0x4026eac7	2.6080797
185	0x4011c333	2.277539
186	0xbb107944	-0.0022044936
187	0xbc326154	-0.010887463
188	0x4012aea4	2.2919092
189	0x4011f9ad	2.280864
190	0x3fe1883b	1.7619699
191	0x3fa136da	1.2594864
192	0x3bb5a28c	0.0055430587
193	0x3fe0f044	1.7573323
194	0xbe961bb8	-0.29318023
195	0xbe8e85dd	-0.27836505
196	0xbea332d6	-0.31874722
197	0xbea34359	-0.3188732
198	0xbe8b073d	-0.2715396
199	0xbeec7aa1	-0.46187308
200	0xbef31cb7	-0.47482845
201	0xbeede8bd	-0.46466628
202	0xbef5874c	-0.47954786
203	0xbef38c12	-0.47567803
204	0xbeea4038	-0.4575212
205	0xbeef4b8a	-0.4673732
206	0xbef104f1	-0.47074082
207	0xbeee8e8b	-0.46593127
208	0xbeefeac3	-0.46858796
209	0xbef62076	-0.4807164
210	0xbef2bedf	-0.47411248
211	0xbef37de5	-0.47556987
212	0xbef2ca3c	-0.47419918
213	0xbef46772	-0.47735173
214	0xbeed05aa	-0.46293384
215	0xbeef6dcb	-0.46763453
216	0xbef2be18	-0.47410655
217	0xbef3287d	-0.47491828
218	0xbee8a874	-0.4544102
219	0xbeed5046	-0.46350306
220	0xbef41c0d	-0.4767765
221	0xbeeb3acc	-0.45943296
222	0xbee8b5d1	-0.45451215
223	0xbeeb28a5	-0.45929447
224	0xbef27617	-0.4735572
225	0xbef47a0b	-0.4774936
226	0xbef1e95d	-0.47248355
227	0xbef374e1	-0.4755011
228	0xbeeb47f6	-0.4595334
229	0xbeead30e	-0.45864147
230	0xbee8ce50	-0.45469904
231	0xbeead8d0	-0.4586854
232	0xbef72784	-0.48272336
233	0xbeea93fa	-0.45816022
234	0xbeebecac	-0.46079004
235	0xbef33cca	-0.47507316
236	0xbeea7b74	-0.45797312
237	0xbef38dc3	-0.47569093
238	0xbef3c85a	-0.47613794
239	0xbef52797	-0.47881767
240	0xbef09135	-0.46985784
241	0xbee8af5f	-0.45446298
242	0xbee98997	-0.45612785
243	0xbef60eeb	-0.48058257
244	0xbeec9b7d	-0.46212378
245	0xbeef2151	-0.46705106
246	0xbef5560f	-0.4791722
247	0xbeead0be	-0.45862383
248	0xbee901f6	-0.4550931
249	0xbeea9e9c	-0.45824134
250	0xbef495fc	-0.4777068
251	0xbeea6ee6	-0.45787734
252	0xbef4906d	-0.47766438
253	0xbeebe999	-0.46076658
254	0xbef12c54	-0.47104132
255	0xbeeedef7	-0.46654484

l1.bias f4 [8]
0	0x3e6b4af4	0.22977811
1	0x3e405052	0.1878064
2	0x3e939d70	0.28831053
3	0x3e691bda	0.22764531
4	0x3e5352e8	0.20637095
5	0x3e45d082	0.1931782
6	0x3ec92920	0.39289188
7	0xbcd93855	-0.026516119

l2.weight f4 [8, 8]
0	0xc02806b9	-2.6254103
1	0x3e11916c	0.1421563
2	0xbe7946e6	-0.24343452
3	0xbf3c8dad	-0.7365368
4	0xc0170acd	-2.3600342
5	0xbfe7773c	-1.8083262
6	0x3ff6e28b	1.9287885
7	0x3fa14e25	1.2601973
8	0x3f98cef6	1.193816
9	0x3ff6df57	1.9286908
10	0x3d850197	0.06494444
11	0xbe8337ce	-0.25628513
12	0x406ef6e3	3.7338188
13	0x3e2df618	0.16988409
14	0xbf02b464	-0.51056504
15	0xbfe68b9a	-1.8011353
16	0xbe45a142	-0.19299796
17	0xbf2b8ff8	-0.67016554
18	0xbf07368c	-0.52817607
19	0xbf8abda5	-1.0839125
20	0x3f6d6d14	0.92744565
21	0x3fa89486	1.3170326
22	0x3fb3536f	1.4009837
23	0x3f90c8b5	1.1311251
24	0xc0142d5b	-2.3152683
25	0x3ef339b4	0.47504961
26	0xbec2107e	-0.37903208
27	0xbee01520	-0.43766117
28	0x3f78ed07	0.97236675
29	0xbfca3cf6	-1.5799854
30	0x3f9ead00	1.2396545
31	0x3f2d3ab6	0.6766771
32	0xbfd11481	-1.6334382
33	0xbfc4da90	-1.53792
34	0x3f1e2d76	0.6178812
35	0xbe132841	-0.14370824
36	0xbf239600	-0.63900757
37	0xbf81e582	-1.0148165
38	0x3f1713ff	0.59014887
39	0x3e7edeb1	0.24889638
40	0x3f13c473	0.5772163
41	0x40ddb0ab	6.927816
42	0x40af3ccc	5.4761715
43	0x3f817a88	1.0115519
44	0xbef06ea0	-0.469594
45	0xbf89ad69	-1.0756046
46	0x3e1a8629	0.1509024
47	0x3ff59763	1.9186825
48	0x4060fb0a	3.5153222
49	0xc083a39c	-4.113722
50	0xc06be799	-3.6860106
51	0xbfd2ccda	-1.6468766
52	0x40805c90	4.011299
53	0x3e7c3e2d	0.24633093
54	0xbf3f33b6	-0.7468828
55	0x401e865c	2.4769506
56	0x40392aac	2.8932295
57	0x3f8de288	1.1084757
58	0x40067539	2.1009047
59	0x3eec0e16	0.46104497
60	0x4007054b	2.109698
61	0x3fbc5acf	1.4715213
62	0xbe972611	-0.2952123
63	0xbea2b367	-0.31777498

l2.bias f4 [8]
0	0xbbe06c97	-0.0068488824
1	0xbd7d4deb	-0.061841886
2	0xbf36d126	-0.71412885
3	0xbdd0c526	-0.10193853
4	0xbe5a5081	-0.21319772
5	0x3ed06d47	0.40708372
6	0x3ddf6cb8	0.10909408
7	0x3eb824a8	0.35965466

l3.weight f4 [12, 8]
0	0xc040b845	-3.011247
1	0xc0be755c	-5.951826
2	0xbfa37bc1	-1.2772142
3	0xc06476de	-3.569755
4	0xc12177e3	-10.091769
5	0xc0c5fe0e	-6.1872625
6	0xbca2ae2f	-0.019858448
7	0xc1149609	-9.28663
8	0xc0f337c3	-7.600557
9	0xc085d43e	-4.1821585
10	0x3f399689	0.72495323
11	0xc0817092	-4.0449915
12	0xc11a2ea6	-9.636389
13	0xc13d2219	-11.820825
14	0xbf4703a4	-0.7773993
15	0xc0b76e9e	-5.732253
16	0xbee738c9	-0.4516051
17	0xc03daa54	-2.963521
18	0x3f572684	0.84043145
19	0x400b4621	2.1761553
20	0xc0db7067	-6.857471
21	0xc1343b21	-11.264436
22	0xbf2e2e3c	-0.680393
23	0xc103fc27	-8.249061
24	0xc0d5e36f	-6.684013
25	0xbe84948b	-0.2589458
26	0xc06f0d32	-3.7351804
27	0xc08e30ce	-4.4434576
28	0xc14bbad3	-12.733111
29	0xc0a0897b	-5.0167823
30	0xbf6af0e6	-0.9177383
31	0xc1001b8c	-8.006725
32	0x3e7eb38d	0.2487318
33	0xc124bb2d	-10.295697
34	0x3f26cde6	0.65157926
35	0x3f38c30a	0.72172606
36	0x3f256d49	0.6461988
37	0x3efb26e5	0.49053112
38	0xc0c3471e	-6.1024313
39	0xc0087893	-2.1323593
40	0x3f8cac75	1.099013
41	0x40bf0115	5.968882
42	0xbe40fe0a	-0.18846908
43	0xbe64f5cf	-0.22359394
44	0x3f1b14be	0.60578525
45	0xbe1c4742	-0.15261558
46	0xc10d599a	-8.834375
47	0xbf4180c2	-0.75587094
48	0xc06bde9d	-3.6854622
49	0xbf878fc9	-1.0590755
50	0xc05e8ee1	-3.4774706
51	0xbf97e75a	-1.1867478
52	0xc095c98a	-4.680852
53	0xc0f1ac3b	-7.552274
54	0xbf8b5e8e	-1.0888231
55	0xc130da81	-11.053346
56	0xc0b4acfc	-5.6461163
57	0x3f334bd3	0.70037574
58	0xc07a8102	-3.914124
59	0xc0ad2e1f	-5.41188
60	0xc0e2dba7	-7.089313
61	0xc13afa8f	-11.686172
62	0xbea05b43	-0.31319627
63	0xc0cb9136	-6.361476
64	0xc0b85218	-5.760021
65	0x3f990cf1	1.1957074
66	0xc0168826	-2.3520598
67	0x40135a46	2.3023849
68	0xc114465a	-9.267176
69	0xc1145d04	-9.272709
70	0xbfb16b90	-1.386095
71	0xc0f247b2	-7.571252
72	0xc0e9918d	-7.2990174
73	0x40bc6d55	5.888346
74	0xc13c08fd	-11.752194
75	0xc005c165	-2.0899289
76	0xc14b6681	-12.712525
77	0xc0dac111	-6.8360677
78	0xbfff4fdd	-1.9946247
79	0xc0a51b2f	-5.1595683
80	0xc101ac46	-8.104559
81	0xbf85afd2	-1.0444281
82	0xc04bf12e	-3.1865954
83	0xc07175af	-3.7728078
84	0xc10a3464	-8.637791
85	0xc151cfc4	-13.113224
86	0xbfdec3a3	-1.7403454
87	0xc0401502	-3.0012822
88	0xc0f46abc	-7.638029
89	0xc06265a0	-3.5374527
90	0xc0d0a9d4	-6.520731
91	0xc04ad5f1	-3.169308
92	0xc135ee12	-11.370623
93	0xc117a250	-9.477127
94	0x3f0683a6	0.5254463
95	0xc0ba4f5c	-5.8221874

l3.bias f4 [12]
0	0xc12a2349	-10.633615
1	0xc12ecdcf	-10.925246
2	0xc11e0a9a	-9.877588
3	0xc1344b16	-11.268332
4	0xbe2cd8d3	-0.16879587
5	0xbea0afd5	-0.3138415
6	0xc10da66e	-8.853132
7	0xc126b6f2	-10.419664
8	0xc1217d92	-10.093157
9	0xc140e326	-12.055456
10	0xc134a7c7	-11.290961
11	0xc1323344	-11.137516
